…
2020-03-23 21:46:12,204 Test: data/test.txt
Corpus: 14041 train + 3250 dev + 3453 test sentences
Dictionary with 12 tags: <unk>, O, B-ORG, B-MISC, B-PER, I-PER, B-LOC, I-ORG, I-MISC, I-LOC, <START>, <STOP>
mix_ebx
2020-03-23 21:47:54,677 ----------------------------------------------------------------------------------------------------
2020-03-23 21:47:54,684 Model: "SequenceTagger(
  (embeddings): StackedEmbeddings(
    (list_embedding_0): ELMoEmbeddings(model=0-elmo-small)
    (list_embedding_1): BertEmbeddings(
      (model): BertModel(
        (embeddings): BertEmbeddings(
          (word_embeddings): Embedding(30522, 768, padding_idx=0)
          (position_embeddings): Embedding(512, 768)
          (token_type_embeddings): Embedding(2, 768)
          (LayerNorm): LayerNorm((768,), eps=1e-12, elementwise_affine=True)
          (dropout): Dropout(p=0.1, inplace=False)
        )
        (encoder): BertEncoder(
          (layer): ModuleList(
            (0): BertLayer(
              (attention): BertAttention(
                (self): BertSelfAttention(
                  (query): Linear(in_features=768, out_features=768, bias=True)
                  (key): Linear(in_features=768, out_features=768, bias=True)
                  (value): Linear(in_features=768, out_features=768, bias=True)
                  (dropout): Dropout(p=0.1, inplace=False)
                )
                (output): BertSelfOutput(
                  (dense): Linear(in_features=768, out_features=768, bias=True)
                  (LayerNorm): LayerNorm((768,), eps=1e-12, elementwise_affine=True)
                  (dropout): Dropout(p=0.1, inplace=False)
                )
              )
              (intermediate): BertIntermediate(
                (dense): Linear(in_features=768, out_features=3072, bias=True)
              )
              (output): BertOutput(
                (dense): Linear(in_features=3072, out_features=768, bias=True)
                (LayerNorm): LayerNorm((768,), eps=1e-12, elementwise_affine=True)
                (dropout): Dropout(p=0.1, inplace=False)
              )
            )
            (1): BertLayer(
              (attention): BertAttention(
                (self): BertSelfAttention(
                  (query): Linear(in_features=768, out_features=768, bias=True)
                  (key): Linear(in_features=768, out_features=768, bias=True)
                  (value): Linear(in_features=768, out_features=768, bias=True)
                  (dropout): Dropout(p=0.1, inplace=False)
                )
                (output): BertSelfOutput(
                  (dense): Linear(in_features=768, out_features=768, bias=True)
                  (LayerNorm): LayerNorm((768,), eps=1e-12, elementwise_affine=True)
                  (dropout): Dropout(p=0.1, inplace=False)
                )
              )
              (intermediate): BertIntermediate(
                (dense): Linear(in_features=768, out_features=3072, bias=True)
              )
              (output): BertOutput(
                (dense): Linear(in_features=3072, out_features=768, bias=True)
                (LayerNorm): LayerNorm((768,), eps=1e-12, elementwise_affine=True)
                (dropout): Dropout(p=0.1, inplace=False)
              )
            )
            (2): BertLayer(
              (attention): BertAttention(
                (self): BertSelfAttention(
                  (query): Linear(in_features=768, out_features=768, bias=True)
                  (key): Linear(in_features=768, out_features=768, bias=True)
                  (value): Linear(in_features=768, out_features=768, bias=True)
                  (dropout): Dropout(p=0.1, inplace=False)
                )
                (output): BertSelfOutput(
                  (dense): Linear(in_features=768, out_features=768, bias=True)
                  (LayerNorm): LayerNorm((768,), eps=1e-12, elementwise_affine=True)
                  (dropout): Dropout(p=0.1, inplace=False)
                )
              )
              (intermediate): BertIntermediate(
                (dense): Linear(in_features=768, out_features=3072, bias=True)
              )
              (output): BertOutput(
                (dense): Linear(in_features=3072, out_features=768, bias=True)
                (LayerNorm): LayerNorm((768,), eps=1e-12, elementwise_affine=True)
                (dropout): Dropout(p=0.1, inplace=False)
              )
            )
            (3): BertLayer(
              (attention): BertAttention(
                (self): BertSelfAttention(
                  (query): Linear(in_features=768, out_features=768, bias=True)
                  (key): Linear(in_features=768, out_features=768, bias=True)
                  (value): Linear(in_features=768, out_features=768, bias=True)
                  (dropout): Dropout(p=0.1, inplace=False)
                )
                (output): BertSelfOutput(
                  (dense): Linear(in_features=768, out_features=768, bias=True)
                  (LayerNorm): LayerNorm((768,), eps=1e-12, elementwise_affine=True)
                  (dropout): Dropout(p=0.1, inplace=False)
                )
              )
              (intermediate): BertIntermediate(
                (dense): Linear(in_features=768, out_features=3072, bias=True)
              )
              (output): BertOutput(
                (dense): Linear(in_features=3072, out_features=768, bias=True)
                (LayerNorm): LayerNorm((768,), eps=1e-12, elementwise_affine=True)
                (dropout): Dropout(p=0.1, inplace=False)
              )
            )
            (4): BertLayer(
              (attention): BertAttention(
                (self): BertSelfAttention(
                  (query): Linear(in_features=768, out_features=768, bias=True)
                  (key): Linear(in_features=768, out_features=768, bias=True)
                  (value): Linear(in_features=768, out_features=768, bias=True)
                  (dropout): Dropout(p=0.1, inplace=False)
                )
                (output): BertSelfOutput(
                  (dense): Linear(in_features=768, out_features=768, bias=True)
                  (LayerNorm): LayerNorm((768,), eps=1e-12, elementwise_affine=True)
                  (dropout): Dropout(p=0.1, inplace=False)
                )
              )
              (intermediate): BertIntermediate(
                (dense): Linear(in_features=768, out_features=3072, bias=True)
              )
              (output): BertOutput(
                (dense): Linear(in_features=3072, out_features=768, bias=True)
                (LayerNorm): LayerNorm((768,), eps=1e-12, elementwise_affine=True)
                (dropout): Dropout(p=0.1, inplace=False)
              )
            )
            (5): BertLayer(
              (attention): BertAttention(
                (self): BertSelfAttention(
                  (query): Linear(in_features=768, out_features=768, bias=True)
                  (key): Linear(in_features=768, out_features=768, bias=True)
                  (value): Linear(in_features=768, out_features=768, bias=True)
                  (dropout): Dropout(p=0.1, inplace=False)
                )
                (output): BertSelfOutput(
                  (dense): Linear(in_features=768, out_features=768, bias=True)
                  (LayerNorm): LayerNorm((768,), eps=1e-12, elementwise_affine=True)
                  (dropout): Dropout(p=0.1, inplace=False)
                )
              )
              (intermediate): BertIntermediate(
                (dense): Linear(in_features=768, out_features=3072, bias=True)
              )
              (output): BertOutput(
                (dense): Linear(in_features=3072, out_features=768, bias=True)
                (LayerNorm): LayerNorm((768,), eps=1e-12, elementwise_affine=True)
                (dropout): Dropout(p=0.1, inplace=False)
              )
            )
            (6): BertLayer(
              (attention): BertAttention(
                (self): BertSelfAttention(
                  (query): Linear(in_features=768, out_features=768, bias=True)
                  (key): Linear(in_features=768, out_features=768, bias=True)
                  (value): Linear(in_features=768, out_features=768, bias=True)
                  (dropout): Dropout(p=0.1, inplace=False)
                )
                (output): BertSelfOutput(
                  (dense): Linear(in_features=768, out_features=768, bias=True)
                  (LayerNorm): LayerNorm((768,), eps=1e-12, elementwise_affine=True)
                  (dropout): Dropout(p=0.1, inplace=False)
                )
              )
              (intermediate): BertIntermediate(
                (dense): Linear(in_features=768, out_features=3072, bias=True)
              )
              (output): BertOutput(
                (dense): Linear(in_features=3072, out_features=768, bias=True)
                (LayerNorm): LayerNorm((768,), eps=1e-12, elementwise_affine=True)
                (dropout): Dropout(p=0.1, inplace=False)
              )
            )
            (7): BertLayer(
              (attention): BertAttention(
                (self): BertSelfAttention(
                  (query): Linear(in_features=768, out_features=768, bias=True)
                  (key): Linear(in_features=768, out_features=768, bias=True)
                  (value): Linear(in_features=768, out_features=768, bias=True)
                  (dropout): Dropout(p=0.1, inplace=False)
                )
                (output): BertSelfOutput(
                  (dense): Linear(in_features=768, out_features=768, bias=True)
                  (LayerNorm): LayerNorm((768,), eps=1e-12, elementwise_affine=True)
                  (dropout): Dropout(p=0.1, inplace=False)
                )
              )
              (intermediate): BertIntermediate(
                (dense): Linear(in_features=768, out_features=3072, bias=True)
              )
              (output): BertOutput(
                (dense): Linear(in_features=3072, out_features=768, bias=True)
                (LayerNorm): LayerNorm((768,), eps=1e-12, elementwise_affine=True)
                (dropout): Dropout(p=0.1, inplace=False)
              )
            )
            (8): BertLayer(
              (attention): BertAttention(
                (self): BertSelfAttention(
                  (query): Linear(in_features=768, out_features=768, bias=True)
                  (key): Linear(in_features=768, out_features=768, bias=True)
                  (value): Linear(in_features=768, out_features=768, bias=True)
                  (dropout): Dropout(p=0.1, inplace=False)
                )
                (output): BertSelfOutput(
                  (dense): Linear(in_features=768, out_features=768, bias=True)
                  (LayerNorm): LayerNorm((768,), eps=1e-12, elementwise_affine=True)
                  (dropout): Dropout(p=0.1, inplace=False)
                )
              )
              (intermediate): BertIntermediate(
                (dense): Linear(in_features=768, out_features=3072, bias=True)
              )
              (output): BertOutput(
                (dense): Linear(in_features=3072, out_features=768, bias=True)
                (LayerNorm): LayerNorm((768,), eps=1e-12, elementwise_affine=True)
                (dropout): Dropout(p=0.1, inplace=False)
              )
            )
            (9): BertLayer(
              (attention): BertAttention(
                (self): BertSelfAttention(
                  (query): Linear(in_features=768, out_features=768, bias=True)
                  (key): Linear(in_features=768, out_features=768, bias=True)
                  (value): Linear(in_features=768, out_features=768, bias=True)
                  (dropout): Dropout(p=0.1, inplace=False)
                )
                (output): BertSelfOutput(
                  (dense): Linear(in_features=768, out_features=768, bias=True)
                  (LayerNorm): LayerNorm((768,), eps=1e-12, elementwise_affine=True)
                  (dropout): Dropout(p=0.1, inplace=False)
                )
              )
              (intermediate): BertIntermediate(
                (dense): Linear(in_features=768, out_features=3072, bias=True)
              )
              (output): BertOutput(
                (dense): Linear(in_features=3072, out_features=768, bias=True)
                (LayerNorm): LayerNorm((768,), eps=1e-12, elementwise_affine=True)
                (dropout): Dropout(p=0.1, inplace=False)
              )
            )
            (10): BertLayer(
              (attention): BertAttention(
                (self): BertSelfAttention(
                  (query): Linear(in_features=768, out_features=768, bias=True)
                  (key): Linear(in_features=768, out_features=768, bias=True)
                  (value): Linear(in_features=768, out_features=768, bias=True)
                  (dropout): Dropout(p=0.1, inplace=False)
                )
                (output): BertSelfOutput(
                  (dense): Linear(in_features=768, out_features=768, bias=True)
                  (LayerNorm): LayerNorm((768,), eps=1e-12, elementwise_affine=True)
                  (dropout): Dropout(p=0.1, inplace=False)
                )
              )
              (intermediate): BertIntermediate(
                (dense): Linear(in_features=768, out_features=3072, bias=True)
              )
              (output): BertOutput(
                (dense): Linear(in_features=3072, out_features=768, bias=True)
                (LayerNorm): LayerNorm((768,), eps=1e-12, elementwise_affine=True)
                (dropout): Dropout(p=0.1, inplace=False)
              )
            )
            (11): BertLayer(
              (attention): BertAttention(
                (self): BertSelfAttention(
                  (query): Linear(in_features=768, out_features=768, bias=True)
                  (key): Linear(in_features=768, out_features=768, bias=True)
                  (value): Linear(in_features=768, out_features=768, bias=True)
                  (dropout): Dropout(p=0.1, inplace=False)
                )
                (output): BertSelfOutput(
                  (dense): Linear(in_features=768, out_features=768, bias=True)
                  (LayerNorm): LayerNorm((768,), eps=1e-12, elementwise_affine=True)
                  (dropout): Dropout(p=0.1, inplace=False)
                )
              )
              (intermediate): BertIntermediate(
                (dense): Linear(in_features=768, out_features=3072, bias=True)
              )
              (output): BertOutput(
                (dense): Linear(in_features=3072, out_features=768, bias=True)
                (LayerNorm): LayerNorm((768,), eps=1e-12, elementwise_affine=True)
                (dropout): Dropout(p=0.1, inplace=False)
              )
            )
          )
        )
        (pooler): BertPooler(
          (dense): Linear(in_features=768, out_features=768, bias=True)
          (activation): Tanh()
        )
      )
    )
    (list_embedding_2): XLNetEmbeddings(
      model=2-xlnet-large-cased
      (model): XLNetModel(
        (word_embedding): Embedding(32000, 1024)
        (layer): ModuleList(
          (0): XLNetLayer(
            (rel_attn): XLNetRelativeAttention(
              (layer_norm): LayerNorm((1024,), eps=1e-12, elementwise_affine=True)
              (dropout): Dropout(p=0.1, inplace=False)
            )
            (ff): XLNetFeedForward(
              (layer_norm): LayerNorm((1024,), eps=1e-12, elementwise_affine=True)
              (layer_1): Linear(in_features=1024, out_features=4096, bias=True)
              (layer_2): Linear(in_features=4096, out_features=1024, bias=True)
              (dropout): Dropout(p=0.1, inplace=False)
            )
            (dropout): Dropout(p=0.1, inplace=False)
          )
          (1): XLNetLayer(
            (rel_attn): XLNetRelativeAttention(
              (layer_norm): LayerNorm((1024,), eps=1e-12, elementwise_affine=True)
              (dropout): Dropout(p=0.1, inplace=False)
            )
            (ff): XLNetFeedForward(
              (layer_norm): LayerNorm((1024,), eps=1e-12, elementwise_affine=True)
              (layer_1): Linear(in_features=1024, out_features=4096, bias=True)
              (layer_2): Linear(in_features=4096, out_features=1024, bias=True)
              (dropout): Dropout(p=0.1, inplace=False)
            )
            (dropout): Dropout(p=0.1, inplace=False)
          )
          (2): XLNetLayer(
            (rel_attn): XLNetRelativeAttention(
              (layer_norm): LayerNorm((1024,), eps=1e-12, elementwise_affine=True)
              (dropout): Dropout(p=0.1, inplace=False)
            )
            (ff): XLNetFeedForward(
              (layer_norm): LayerNorm((1024,), eps=1e-12, elementwise_affine=True)
              (layer_1): Linear(in_features=1024, out_features=4096, bias=True)
              (layer_2): Linear(in_features=4096, out_features=1024, bias=True)
              (dropout): Dropout(p=0.1, inplace=False)
            )
            (dropout): Dropout(p=0.1, inplace=False)
          )
          (3): XLNetLayer(
            (rel_attn): XLNetRelativeAttention(
              (layer_norm): LayerNorm((1024,), eps=1e-12, elementwise_affine=True)
              (dropout): Dropout(p=0.1, inplace=False)
            )
            (ff): XLNetFeedForward(
              (layer_norm): LayerNorm((1024,), eps=1e-12, elementwise_affine=True)
              (layer_1): Linear(in_features=1024, out_features=4096, bias=True)
              (layer_2): Linear(in_features=4096, out_features=1024, bias=True)
              (dropout): Dropout(p=0.1, inplace=False)
            )
            (dropout): Dropout(p=0.1, inplace=False)
          )
          (4): XLNetLayer(
            (rel_attn): XLNetRelativeAttention(
              (layer_norm): LayerNorm((1024,), eps=1e-12, elementwise_affine=True)
              (dropout): Dropout(p=0.1, inplace=False)
            )
            (ff): XLNetFeedForward(
              (layer_norm): LayerNorm((1024,), eps=1e-12, elementwise_affine=True)
              (layer_1): Linear(in_features=1024, out_features=4096, bias=True)
              (layer_2): Linear(in_features=4096, out_features=1024, bias=True)
              (dropout): Dropout(p=0.1, inplace=False)
            )
            (dropout): Dropout(p=0.1, inplace=False)
          )
          (5): XLNetLayer(
            (rel_attn): XLNetRelativeAttention(
              (layer_norm): LayerNorm((1024,), eps=1e-12, elementwise_affine=True)
              (dropout): Dropout(p=0.1, inplace=False)
            )
            (ff): XLNetFeedForward(
              (layer_norm): LayerNorm((1024,), eps=1e-12, elementwise_affine=True)
              (layer_1): Linear(in_features=1024, out_features=4096, bias=True)
              (layer_2): Linear(in_features=4096, out_features=1024, bias=True)
              (dropout): Dropout(p=0.1, inplace=False)
            )
            (dropout): Dropout(p=0.1, inplace=False)
          )
          (6): XLNetLayer(
            (rel_attn): XLNetRelativeAttention(
              (layer_norm): LayerNorm((1024,), eps=1e-12, elementwise_affine=True)
              (dropout): Dropout(p=0.1, inplace=False)
            )
            (ff): XLNetFeedForward(
              (layer_norm): LayerNorm((1024,), eps=1e-12, elementwise_affine=True)
              (layer_1): Linear(in_features=1024, out_features=4096, bias=True)
              (layer_2): Linear(in_features=4096, out_features=1024, bias=True)
              (dropout): Dropout(p=0.1, inplace=False)
            )
            (dropout): Dropout(p=0.1, inplace=False)
          )
          (7): XLNetLayer(
            (rel_attn): XLNetRelativeAttention(
              (layer_norm): LayerNorm((1024,), eps=1e-12, elementwise_affine=True)
              (dropout): Dropout(p=0.1, inplace=False)
            )
            (ff): XLNetFeedForward(
              (layer_norm): LayerNorm((1024,), eps=1e-12, elementwise_affine=True)
              (layer_1): Linear(in_features=1024, out_features=4096, bias=True)
              (layer_2): Linear(in_features=4096, out_features=1024, bias=True)
              (dropout): Dropout(p=0.1, inplace=False)
            )
            (dropout): Dropout(p=0.1, inplace=False)
          )
          (8): XLNetLayer(
            (rel_attn): XLNetRelativeAttention(
              (layer_norm): LayerNorm((1024,), eps=1e-12, elementwise_affine=True)
              (dropout): Dropout(p=0.1, inplace=False)
            )
            (ff): XLNetFeedForward(
              (layer_norm): LayerNorm((1024,), eps=1e-12, elementwise_affine=True)
              (layer_1): Linear(in_features=1024, out_features=4096, bias=True)
              (layer_2): Linear(in_features=4096, out_features=1024, bias=True)
              (dropout): Dropout(p=0.1, inplace=False)
            )
            (dropout): Dropout(p=0.1, inplace=False)
          )
          (9): XLNetLayer(
            (rel_attn): XLNetRelativeAttention(
              (layer_norm): LayerNorm((1024,), eps=1e-12, elementwise_affine=True)
              (dropout): Dropout(p=0.1, inplace=False)
            )
            (ff): XLNetFeedForward(
              (layer_norm): LayerNorm((1024,), eps=1e-12, elementwise_affine=True)
              (layer_1): Linear(in_features=1024, out_features=4096, bias=True)
              (layer_2): Linear(in_features=4096, out_features=1024, bias=True)
              (dropout): Dropout(p=0.1, inplace=False)
            )
            (dropout): Dropout(p=0.1, inplace=False)
          )
          (10): XLNetLayer(
            (rel_attn): XLNetRelativeAttention(
              (layer_norm): LayerNorm((1024,), eps=1e-12, elementwise_affine=True)
              (dropout): Dropout(p=0.1, inplace=False)
            )
            (ff): XLNetFeedForward(
              (layer_norm): LayerNorm((1024,), eps=1e-12, elementwise_affine=True)
              (layer_1): Linear(in_features=1024, out_features=4096, bias=True)
              (layer_2): Linear(in_features=4096, out_features=1024, bias=True)
              (dropout): Dropout(p=0.1, inplace=False)
            )
            (dropout): Dropout(p=0.1, inplace=False)
          )
          (11): XLNetLayer(
            (rel_attn): XLNetRelativeAttention(
              (layer_norm): LayerNorm((1024,), eps=1e-12, elementwise_affine=True)
              (dropout): Dropout(p=0.1, inplace=False)
            )
            (ff): XLNetFeedForward(
              (layer_norm): LayerNorm((1024,), eps=1e-12, elementwise_affine=True)
              (layer_1): Linear(in_features=1024, out_features=4096, bias=True)
              (layer_2): Linear(in_features=4096, out_features=1024, bias=True)
              (dropout): Dropout(p=0.1, inplace=False)
            )
            (dropout): Dropout(p=0.1, inplace=False)
          )
          (12): XLNetLayer(
            (rel_attn): XLNetRelativeAttention(
              (layer_norm): LayerNorm((1024,), eps=1e-12, elementwise_affine=True)
              (dropout): Dropout(p=0.1, inplace=False)
            )
            (ff): XLNetFeedForward(
              (layer_norm): LayerNorm((1024,), eps=1e-12, elementwise_affine=True)
              (layer_1): Linear(in_features=1024, out_features=4096, bias=True)
              (layer_2): Linear(in_features=4096, out_features=1024, bias=True)
              (dropout): Dropout(p=0.1, inplace=False)
            )
            (dropout): Dropout(p=0.1, inplace=False)
          )
          (13): XLNetLayer(
            (rel_attn): XLNetRelativeAttention(
              (layer_norm): LayerNorm((1024,), eps=1e-12, elementwise_affine=True)
              (dropout): Dropout(p=0.1, inplace=False)
            )
            (ff): XLNetFeedForward(
              (layer_norm): LayerNorm((1024,), eps=1e-12, elementwise_affine=True)
              (layer_1): Linear(in_features=1024, out_features=4096, bias=True)
              (layer_2): Linear(in_features=4096, out_features=1024, bias=True)
              (dropout): Dropout(p=0.1, inplace=False)
            )
            (dropout): Dropout(p=0.1, inplace=False)
          )
          (14): XLNetLayer(
            (rel_attn): XLNetRelativeAttention(
              (layer_norm): LayerNorm((1024,), eps=1e-12, elementwise_affine=True)
              (dropout): Dropout(p=0.1, inplace=False)
            )
            (ff): XLNetFeedForward(
              (layer_norm): LayerNorm((1024,), eps=1e-12, elementwise_affine=True)
              (layer_1): Linear(in_features=1024, out_features=4096, bias=True)
              (layer_2): Linear(in_features=4096, out_features=1024, bias=True)
              (dropout): Dropout(p=0.1, inplace=False)
            )
            (dropout): Dropout(p=0.1, inplace=False)
          )
          (15): XLNetLayer(
            (rel_attn): XLNetRelativeAttention(
              (layer_norm): LayerNorm((1024,), eps=1e-12, elementwise_affine=True)
              (dropout): Dropout(p=0.1, inplace=False)
            )
            (ff): XLNetFeedForward(
              (layer_norm): LayerNorm((1024,), eps=1e-12, elementwise_affine=True)
              (layer_1): Linear(in_features=1024, out_features=4096, bias=True)
              (layer_2): Linear(in_features=4096, out_features=1024, bias=True)
              (dropout): Dropout(p=0.1, inplace=False)
            )
            (dropout): Dropout(p=0.1, inplace=False)
          )
          (16): XLNetLayer(
            (rel_attn): XLNetRelativeAttention(
              (layer_norm): LayerNorm((1024,), eps=1e-12, elementwise_affine=True)
              (dropout): Dropout(p=0.1, inplace=False)
            )
            (ff): XLNetFeedForward(
              (layer_norm): LayerNorm((1024,), eps=1e-12, elementwise_affine=True)
              (layer_1): Linear(in_features=1024, out_features=4096, bias=True)
              (layer_2): Linear(in_features=4096, out_features=1024, bias=True)
              (dropout): Dropout(p=0.1, inplace=False)
            )
            (dropout): Dropout(p=0.1, inplace=False)
          )
          (17): XLNetLayer(
            (rel_attn): XLNetRelativeAttention(
              (layer_norm): LayerNorm((1024,), eps=1e-12, elementwise_affine=True)
              (dropout): Dropout(p=0.1, inplace=False)
            )
            (ff): XLNetFeedForward(
              (layer_norm): LayerNorm((1024,), eps=1e-12, elementwise_affine=True)
              (layer_1): Linear(in_features=1024, out_features=4096, bias=True)
              (layer_2): Linear(in_features=4096, out_features=1024, bias=True)
              (dropout): Dropout(p=0.1, inplace=False)
            )
            (dropout): Dropout(p=0.1, inplace=False)
          )
          (18): XLNetLayer(
            (rel_attn): XLNetRelativeAttention(
              (layer_norm): LayerNorm((1024,), eps=1e-12, elementwise_affine=True)
              (dropout): Dropout(p=0.1, inplace=False)
            )
            (ff): XLNetFeedForward(
              (layer_norm): LayerNorm((1024,), eps=1e-12, elementwise_affine=True)
              (layer_1): Linear(in_features=1024, out_features=4096, bias=True)
              (layer_2): Linear(in_features=4096, out_features=1024, bias=True)
              (dropout): Dropout(p=0.1, inplace=False)
            )
            (dropout): Dropout(p=0.1, inplace=False)
          )
          (19): XLNetLayer(
            (rel_attn): XLNetRelativeAttention(
              (layer_norm): LayerNorm((1024,), eps=1e-12, elementwise_affine=True)
              (dropout): Dropout(p=0.1, inplace=False)
            )
            (ff): XLNetFeedForward(
              (layer_norm): LayerNorm((1024,), eps=1e-12, elementwise_affine=True)
              (layer_1): Linear(in_features=1024, out_features=4096, bias=True)
              (layer_2): Linear(in_features=4096, out_features=1024, bias=True)
              (dropout): Dropout(p=0.1, inplace=False)
            )
            (dropout): Dropout(p=0.1, inplace=False)
          )
          (20): XLNetLayer(
            (rel_attn): XLNetRelativeAttention(
              (layer_norm): LayerNorm((1024,), eps=1e-12, elementwise_affine=True)
              (dropout): Dropout(p=0.1, inplace=False)
            )
            (ff): XLNetFeedForward(
              (layer_norm): LayerNorm((1024,), eps=1e-12, elementwise_affine=True)
              (layer_1): Linear(in_features=1024, out_features=4096, bias=True)
              (layer_2): Linear(in_features=4096, out_features=1024, bias=True)
              (dropout): Dropout(p=0.1, inplace=False)
            )
            (dropout): Dropout(p=0.1, inplace=False)
          )
          (21): XLNetLayer(
            (rel_attn): XLNetRelativeAttention(
              (layer_norm): LayerNorm((1024,), eps=1e-12, elementwise_affine=True)
              (dropout): Dropout(p=0.1, inplace=False)
            )
            (ff): XLNetFeedForward(
              (layer_norm): LayerNorm((1024,), eps=1e-12, elementwise_affine=True)
              (layer_1): Linear(in_features=1024, out_features=4096, bias=True)
              (layer_2): Linear(in_features=4096, out_features=1024, bias=True)
              (dropout): Dropout(p=0.1, inplace=False)
            )
            (dropout): Dropout(p=0.1, inplace=False)
          )
          (22): XLNetLayer(
            (rel_attn): XLNetRelativeAttention(
              (layer_norm): LayerNorm((1024,), eps=1e-12, elementwise_affine=True)
              (dropout): Dropout(p=0.1, inplace=False)
            )
            (ff): XLNetFeedForward(
              (layer_norm): LayerNorm((1024,), eps=1e-12, elementwise_affine=True)
              (layer_1): Linear(in_features=1024, out_features=4096, bias=True)
              (layer_2): Linear(in_features=4096, out_features=1024, bias=True)
              (dropout): Dropout(p=0.1, inplace=False)
            )
            (dropout): Dropout(p=0.1, inplace=False)
          )
          (23): XLNetLayer(
            (rel_attn): XLNetRelativeAttention(
              (layer_norm): LayerNorm((1024,), eps=1e-12, elementwise_affine=True)
              (dropout): Dropout(p=0.1, inplace=False)
            )
            (ff): XLNetFeedForward(
              (layer_norm): LayerNorm((1024,), eps=1e-12, elementwise_affine=True)
              (layer_1): Linear(in_features=1024, out_features=4096, bias=True)
              (layer_2): Linear(in_features=4096, out_features=1024, bias=True)
              (dropout): Dropout(p=0.1, inplace=False)
            )
            (dropout): Dropout(p=0.1, inplace=False)
          )
        )
        (dropout): Dropout(p=0.1, inplace=False)
      )
    )
  )
  (word_dropout): WordDropout(p=0.05)
  (locked_dropout): LockedDropout(p=0.5)
  (embedding2nn): Linear(in_features=5888, out_features=5888, bias=True)
  (rnn): LSTM(5888, 256, batch_first=True, bidirectional=True)
  (linear): Linear(in_features=512, out_features=12, bias=True)
  (beta): 1.0
  (weights): None
  (weight_tensor) None
)"
2020-03-23 21:47:54,695 ----------------------------------------------------------------------------------------------------
2020-03-23 21:47:54,695 Corpus: "Corpus: 14041 train + 3250 dev + 3453 test sentences"
2020-03-23 21:47:54,695 ----------------------------------------------------------------------------------------------------
…
2020-03-30 16:29:15,498 Dev: data/valid.txt
2020-03-30 16:29:15,498 Test: data/test.txt
Corpus: 14041 train + 3250 dev + 3453 test sentences
Dictionary with 12 tags: <unk>, O, B-ORG, B-MISC, B-PER, I-PER, B-LOC, I-ORG, I-MISC, I-LOC, <START>, <STOP>
flair
2020-03-30 16:29:23,432 ----------------------------------------------------------------------------------------------------
2020-03-30 16:29:23,433 Model: "SequenceTagger(
  (embeddings): StackedEmbeddings(
    (list_embedding_0): FlairEmbeddings(
      (lm): LanguageModel(
        (drop): Dropout(p=0.05, inplace=False)
        (encoder): Embedding(300, 100)
        (rnn): LSTM(100, 2048)
        (decoder): Linear(in_features=2048, out_features=300, bias=True)
      )
    )
    (list_embedding_1): FlairEmbeddings(
      (lm): LanguageModel(
        (drop): Dropout(p=0.05, inplace=False)
        (encoder): Embedding(300, 100)
        (rnn): LSTM(100, 2048)
        (decoder): Linear(in_features=2048, out_features=300, bias=True)
      )
    )
  )
  (word_dropout): WordDropout(p=0.05)
  (locked_dropout): LockedDropout(p=0.5)
  (embedding2nn): Linear(in_features=4096, out_features=4096, bias=True)
  (rnn): LSTM(4096, 256, batch_first=True, bidirectional=True)
  (linear): Linear(in_features=512, out_features=12, bias=True)
  (beta): 1.0
  (weights): None
  (weight_tensor) None
)"
2020-03-30 16:29:23,433 ----------------------------------------------------------------------------------------------------
2020-03-30 16:29:23,433 Corpus: "Corpus: 14041 train + 3250 dev + 3453 test sentences"
2020-03-30 16:29:23,433 ----------------------------------------------------------------------------------------------------
…
